…
        # Modifying here to cause the code to fail
>       assert len(list(model.children())) != len(list(dummy_model.children())) - 1
E       assert 2 != (3 - 1)
E        +  where 2 = len([Linear(in_features=10, out_features=10, bias=True), Linear(in_features=10, out_features=10, bias=True)])
E        +    where [Linear(in_features=10, out_features=10, bias=True), Linear(in_features=10, out_features=10, bias=True)] = list(<generator object Module.children at 0x000002E0D3D15700>)
E        +      where <generator object Module.children at 0x000002E0D3D15700> = <bound method Module.children of Sequential(\n  (0): Linear(in_features=10, out_features=10, bias=True)\n  (1): Linear(in_features=10, out_features=10, bias=True)\n)>()
E        +        where <bound method Module.children of Sequential(\n  (0): Linear(in_features=10, out_features=10, bias=True)\n  (1): Linear(in_features=10, out_features=10, bias=True)\n)> = Sequential(\n  (0): Linear(in_features=10, out_features=10, bias=True)\n  (1): Linear(in_features=10, out_features=10, bias=True)\n).children
E        +  and   3 = len([Linear(in_features=10, out_features=10, bias=True), Linear(in_features=10, out_features=10, bias=True), Linear(in_features=10, out_features=10, bias=True)])
E        +    where [Linear(in_features=10, out_features=10, bias=True), Linear(in_features=10, out_features=10, bias=True), Linear(in_features=10, out_features=10, bias=True)] = list(<generator object Module.children at 0x000002E0D3D157E0>)
E        +      where <generator object Module.children at 0x000002E0D3D157E0> = <bound method Module.children of DummyModel(\n  (linear1): Linear(in_features=10, out_features=10, bias=True)\n  (linear2): Linear(in_features=10, out_features=10, bias=True)\n  (linear3): Linear(in_features=10, out_features=10, bias=True)\n)>()
E        +        where <bound method Module.children of DummyModel(\n  (linear1): Linear(in_features=10, out_features=10, bias=True)\n  (linear2): Linear(in_features=10, out_features=10, bias=True)\n  (linear3): Linear(in_features=10, out_features=10, bias=True)\n)> = DummyModel(\n  (linear1): Linear(in_features=10, out_features=10, bias=True)\n  (linear2): Linear(in_features=10, out_features=10, bias=True)\n  (linear3): Linear(in_features=10, out_features=10, bias=True)\n).children

test_source.py:28: AssertionError

---------- coverage: platform win32, python 3.11.5-final-0 -----------
Name        Stmts   Miss  Cover   Missing
-----------------------------------------
source.py       3      0   100%
-----------------------------------------
TOTAL           3      0   100%

=========================== short test summary info ===========================
…
